{"class_name": "Model", "keras_version": "2.2.4", "config": {"layers": [{"class_name": "InputLayer", "config": {"dtype": "float32", "batch_input_shape": [null, 28, 28, 1], "name": "input_1", "sparse": false}, "inbound_nodes": [], "name": "input_1"}, {"class_name": "Conv2D", "config": {"kernel_constraint": null, "kernel_initializer": {"class_name": "VarianceScaling", "config": {"distribution": "uniform", "scale": 1.0, "seed": null, "mode": "fan_avg"}}, "name": "conv2d_3", "bias_regularizer": null, "bias_constraint": null, "activation": "relu", "trainable": false, "data_format": "channels_last", "padding": "valid", "strides": [1, 1], "dilation_rate": [1, 1], "kernel_regularizer": null, "filters": 32, "bias_initializer": {"class_name": "Zeros", "config": {}}, "use_bias": true, "activity_regularizer": null, "kernel_size": [3, 3]}, "inbound_nodes": [[["input_1", 0, 0, {}]]], "name": "conv2d_3"}, {"class_name": "Conv2D", "config": {"kernel_constraint": null, "kernel_initializer": {"class_name": "VarianceScaling", "config": {"distribution": "uniform", "scale": 1.0, "seed": null, "mode": "fan_avg"}}, "name": "conv2d_4", "bias_regularizer": null, "bias_constraint": null, "activation": "relu", "trainable": false, "data_format": "channels_last", "padding": "same", "strides": [2, 2], "dilation_rate": [1, 1], "kernel_regularizer": null, "filters": 64, "bias_initializer": {"class_name": "Zeros", "config": {}}, "use_bias": true, "activity_regularizer": null, "kernel_size": [3, 3]}, "inbound_nodes": [[["conv2d_3", 0, 0, {}]]], "name": "conv2d_4"}, {"class_name": "InputLayer", "config": {"dtype": "float32", "batch_input_shape": [null, 80, 3], "name": "strokes", "sparse": false}, "inbound_nodes": [], "name": "strokes"}, {"class_name": "MaxPooling2D", "config": {"name": "max_pooling2d_2", "trainable": false, "data_format": "channels_last", "pool_size": [2, 2], "padding": "same", "strides": [2, 2]}, "inbound_nodes": [[["conv2d_4", 0, 0, {}]]], "name": "max_pooling2d_2"}, {"class_name": "LSTM", "config": {"recurrent_activation": "hard_sigmoid", "trainable": false, "recurrent_initializer": {"class_name": "Orthogonal", "config": {"seed": null, "gain": 1.0}}, "use_bias": true, "bias_regularizer": null, "return_state": false, "unroll": false, "activation": "tanh", "bias_initializer": {"class_name": "Zeros", "config": {}}, "units": 160, "unit_forget_bias": true, "activity_regularizer": null, "recurrent_dropout": 0.0, "kernel_initializer": {"class_name": "VarianceScaling", "config": {"distribution": "uniform", "scale": 1.0, "seed": null, "mode": "fan_avg"}}, "kernel_constraint": null, "dropout": 0.0, "stateful": false, "recurrent_regularizer": null, "name": "lstm_1", "bias_constraint": null, "go_backwards": false, "implementation": 1, "kernel_regularizer": null, "return_sequences": true, "recurrent_constraint": null}, "inbound_nodes": [[["strokes", 0, 0, {}]]], "name": "lstm_1"}, {"class_name": "Flatten", "config": {"trainable": false, "name": "flatten_2", "data_format": "channels_last"}, "inbound_nodes": [[["max_pooling2d_2", 0, 0, {}]]], "name": "flatten_2"}, {"class_name": "LSTM", "config": {"recurrent_activation": "hard_sigmoid", "trainable": false, "recurrent_initializer": {"class_name": "Orthogonal", "config": {"seed": null, "gain": 1.0}}, "use_bias": true, "bias_regularizer": null, "return_state": false, "unroll": false, "activation": "tanh", "bias_initializer": {"class_name": "Zeros", "config": {}}, "units": 160, "unit_forget_bias": true, "activity_regularizer": null, "recurrent_dropout": 0.0, "kernel_initializer": {"class_name": "VarianceScaling", "config": {"distribution": "uniform", "scale": 1.0, "seed": null, "mode": "fan_avg"}}, "kernel_constraint": null, "dropout": 0.0, "stateful": false, "recurrent_regularizer": null, "name": "lstm_2", "bias_constraint": null, "go_backwards": false, "implementation": 1, "kernel_regularizer": null, "return_sequences": true, "recurrent_constraint": null}, "inbound_nodes": [[["lstm_1", 0, 0, {}]]], "name": "lstm_2"}, {"class_name": "Dropout", "config": {"rate": 0.25, "noise_shape": null, "trainable": false, "seed": null, "name": "dropout_3"}, "inbound_nodes": [[["flatten_2", 0, 0, {}]]], "name": "dropout_3"}, {"class_name": "GlobalMaxPooling1D", "config": {"trainable": false, "name": "global_max_pooling1d_1", "data_format": "channels_last"}, "inbound_nodes": [[["lstm_2", 0, 0, {}]]], "name": "global_max_pooling1d_1"}, {"class_name": "Dense", "config": {"kernel_initializer": {"class_name": "VarianceScaling", "config": {"distribution": "uniform", "scale": 1.0, "seed": null, "mode": "fan_avg"}}, "name": "FC1", "kernel_constraint": null, "bias_regularizer": null, "bias_constraint": null, "activation": "relu", "trainable": false, "kernel_regularizer": null, "bias_initializer": {"class_name": "Zeros", "config": {}}, "units": 128, "use_bias": true, "activity_regularizer": null}, "inbound_nodes": [[["dropout_3", 0, 0, {}]]], "name": "FC1"}, {"class_name": "Dense", "config": {"kernel_initializer": {"class_name": "VarianceScaling", "config": {"distribution": "uniform", "scale": 1.0, "seed": null, "mode": "fan_avg"}}, "name": "lstm_dense_80", "kernel_constraint": null, "bias_regularizer": null, "bias_constraint": null, "activation": "relu", "trainable": false, "kernel_regularizer": null, "bias_initializer": {"class_name": "Zeros", "config": {}}, "units": 80, "use_bias": true, "activity_regularizer": null}, "inbound_nodes": [[["global_max_pooling1d_1", 0, 0, {}]]], "name": "lstm_dense_80"}, {"class_name": "Dense", "config": {"kernel_initializer": {"class_name": "VarianceScaling", "config": {"distribution": "uniform", "scale": 1.0, "seed": null, "mode": "fan_avg"}}, "name": "cnn_embed", "kernel_constraint": null, "bias_regularizer": null, "bias_constraint": null, "activation": "softmax", "trainable": true, "kernel_regularizer": null, "bias_initializer": {"class_name": "Zeros", "config": {}}, "units": 30, "use_bias": true, "activity_regularizer": null}, "inbound_nodes": [[["FC1", 0, 0, {}]]], "name": "cnn_embed"}, {"class_name": "Dense", "config": {"kernel_initializer": {"class_name": "VarianceScaling", "config": {"distribution": "uniform", "scale": 1.0, "seed": null, "mode": "fan_avg"}}, "name": "lstm_embed", "kernel_constraint": null, "bias_regularizer": null, "bias_constraint": null, "activation": "softmax", "trainable": true, "kernel_regularizer": null, "bias_initializer": {"class_name": "Zeros", "config": {}}, "units": 30, "use_bias": true, "activity_regularizer": null}, "inbound_nodes": [[["lstm_dense_80", 0, 0, {}]]], "name": "lstm_embed"}, {"class_name": "Add", "config": {"trainable": true, "name": "combined_model"}, "inbound_nodes": [[["cnn_embed", 0, 0, {}], ["lstm_embed", 0, 0, {}]]], "name": "combined_model"}, {"class_name": "Dense", "config": {"kernel_initializer": {"class_name": "VarianceScaling", "config": {"distribution": "uniform", "scale": 1.0, "seed": null, "mode": "fan_avg"}}, "name": "dense_10", "kernel_constraint": null, "bias_regularizer": null, "bias_constraint": null, "activation": "relu", "trainable": true, "kernel_regularizer": null, "bias_initializer": {"class_name": "Zeros", "config": {}}, "units": 10, "use_bias": true, "activity_regularizer": null}, "inbound_nodes": [[["combined_model", 0, 0, {}]]], "name": "dense_10"}, {"class_name": "Dense", "config": {"kernel_initializer": {"class_name": "VarianceScaling", "config": {"distribution": "uniform", "scale": 1.0, "seed": null, "mode": "fan_avg"}}, "name": "output", "kernel_constraint": null, "bias_regularizer": null, "bias_constraint": null, "activation": "softmax", "trainable": true, "kernel_regularizer": null, "bias_initializer": {"class_name": "Zeros", "config": {}}, "units": 3, "use_bias": true, "activity_regularizer": null}, "inbound_nodes": [[["dense_10", 0, 0, {}]]], "name": "output"}], "input_layers": [["input_1", 0, 0], ["strokes", 0, 0]], "output_layers": [["output", 0, 0]], "name": "model_3"}, "backend": "tensorflow"}